…
ose: an 8.5-hour curated set of carefully select very clean videos, an 19-hour clean set and a 18.6-hour noisy set For our initial evaluation purpose, both training and test sets are segmented into maximum 10 second segments Table 1: Effect of Positional Embeddings (PE) for Transformer. PE test-clean test-other None 3.11 6.94 Sinusoid 3.13 6.67 Frame Stacking 3.04 6.64 Convolution 2.87 6.46 test - clean test - other Table 1 : Effect of Positional Embeddings ( PE ) for Transformer . Table 2: Architecture comparison on the Librispeech benchmark Model Arch #Params (M) test-clean test-other BLSTM (800,5) 79 3.11 7.44 Trf-FS (768,12) 91 3.04 6.64 vggBLSTM (800,5) 95 2.99 6.95 vggTrf. (768,12) 93 2.87 6.46 vggBLSTM (1000,6) 163 2.86 6.63 vggTrf. (768, 20) 149 2.77 6.10 CE losses are calculated separately . These additional CE losses are test - clean test - other Table 2 : Architecture comparison on the Librispeech benchmark Table 3: Using iterated loss to train deep transformer models. Model Arch Iter Loss test-clean test-other vggTrf. (768, 12) N 2.87 6.46 (Params: 93M) Y 2.77 6.10 vggTrf. (512, 24) N not converged (Params: 81M) Y",
        "PWC Anno
…
